tests/test_data/model-checkpoints-test/configuration&id__model&RNN__epochs&10__loss_function&MSE__optimizer&Adagrad__batch_size&100__validation_split&0.2__test_split&0.1__time_steps&1__validation_period&5/Epoch_5_model_state_dictionary.pth (torch_old, 1783 bytes, 6 tensors)

w_graph_node_features f4 [4, 4]
-1.300107 -0.80731225 -0.09145434 -0.1895201 -0.50554013 0.4622059 0.7021709 -0.84667224
0.75660557 1.394309 -0.58752775 -0.66645527 -0.8571723 1.0843837 0.5152836 0.88672435
00000000: e869 a6bf 04ac 4ebf 6a4c bbbd 8f11 42be
00000010: 146b 01bf 40a6 ec3e 79c1 333f 83bf 58bf
00000020: e7b0 413f b878 b23f 3868 16bf d09c 2abf
00000030: a56f 5bbf 16cd 8a3f a0e9 033f 5e00 633f

w_graph_neighbor_messages f4 [4, 4]
1.6745285 -0.703342 -0.7124078 -0.041080408 0.076059744 -0.309424 0.042330712 -0.88245183
0.07755836 -0.22819991 -0.29322654 -0.95106894 0.61252767 -0.75002396 0.6552638 0.14690575
00000000: f356 d63f 390e 34bf 5c60 36bf ee43 28bd
00000010: 36c5 9b3d d36c 9ebe f862 2d3d 5de8 61bf
00000020: ebd6 9e3d 3dad 69be ca21 96be 4179 73bf
00000030: 9dce 1c3f 9201 40bf 5ebf 273f 766e 163e

u_graph_node_features f4 [4, 4]
-1.1476041 -0.29194185 0.37738964 -0.10562103 0.46029133 0.18774714 -0.80846345 0.8784144
1.0200571 0.39942864 0.88155246 -0.76142436 -0.308278 -0.6589913 -0.05568489 -1.024446
00000000: b1e4 92bf 6779 95be 3739 c13e d74f d8bd
00000010: 4eab eb3e c940 403e 76f7 4ebf c4df 603f
00000020: 3b91 823f e981 cc3e 6cad 613f b5ec 42bf
00000030: 9dd6 9dbe a7b3 28bf d715 64bd 0c21 83bf

u_graph_neighbor_messages f4 [4, 4]
-0.1775682 1.4564046 0.31705388 -0.39798784 0.00083736726 0.2273515 -0.1986832 -0.11851739
-0.502596 0.43611425 -0.9860262 -0.66319746 0.092247695 -0.24101396 0.5708483 -0.86998665
00000000: 70d4 35be 776b ba3f e354 a23e 10c5 cbbe
00000010: c482 5b3a d5ce 683e 9c73 4bbe 3fb9 f2bd
00000020: 22aa 00bf 5e4a df3e 376c 7cbf 4fc7 29bf
00000030: 5cec bc3d 5dcc 76be 1d23 123f 72b7 5ebf

linear_weight f4 [7, 16]
-0.14598703 0.22458147 -0.16186598 -0.23727345 -0.05787259 0.15116364 -0.18733846 -0.18286437
-0.10502088 -0.20302488 0.1643054 -0.19238853 -0.0944024 -0.03586188 0.19371131 -0.09288004
-0.19241866 0.1913129 -0.17151284 0.13434067 0.06207596 -0.20145914 -0.11963465 0.042660147
-0.18505165 -0.243887 0.065059744 -0.16802761 -0.09283158 0.06269148 -0.07889339 0.17369255
-0.09422481 -0.24264677 -0.028645873 0.15152627 -0.06331263 0.05189091 -0.14185199 -0.19594646
-0.004455429 0.19534925 -0.24961326 0.1534046 0.17043135 0.072624564 -0.17860666 -0.025944404
-0.21061642 0.18137482 0.15133473 -0.1499596 0.13833776 -0.07039121 0.13288036 0.08514747
-0.014268046 -0.058148712 -0.17971326 0.11335471 0.17320395 -0.18633345 0.09618667 0.151467
0.22772563 0.12685288 -0.026329339 -0.16570815 -0.0447692 0.14880335 0.19273813 0.16580653
0.043429967 -0.029500455 0.21322352 0.12762243 -0.23051488 -0.14476514 -0.03165576 -0.11948736
-0.18875737 -0.22606291 0.035203874 -0.12862778 -0.024795499 -0.14522746 0.08658415 0.011973143
-0.12369053 -0.040464245 0.11861839 -0.14092088 0.16288778 -0.09888458 0.08639124 -0.1431524
-0.053490266 -0.0034290995 -0.03279543 -0.010766596 0.21267116 0.23644745 -0.143537 -0.21221417
0.1419198 0.16349137 -0.13178058 0.115504324 -0.015147716 0.06758571 -0.0914081 0.19080126
00000000: a07d 15be aff8 653e 32c0 25be d0f7 72be
00000010: cf0b 6dbd a4ca 1a3e a7d5 3fbe cc40 3bbe
00000020: 3015 d7bd c1e5 4fbe ad3f 283e 8001 45be
00000030: 0c56 c1bd e8e3 12bd 425c 463e e437 bebd
00000040: 6609 45be 87e7 433e 10a1 2fbe 9a90 093e
00000050: 5d43 7e3d 4e4b 4ebe 0303 f5bd 68bc 2e3d
00000060: 2e7e 3dbe 84bd 79be 0b3e 853d 6e0f 2cbe
00000070: 7c1e bebd 6464 803d dc92 a1bd 76dc 313e
00000080: f0f8 c0bd 6578 78be c0aa eabc b429 1b3e
00000090: 0daa 81bd 908b 543d a641 11be 30a6 48be
000000a0: d9fe 91bb a209 483e 9e9a 7fbe 1816 1d3e
000000b0: 8e85 2e3e 30bc 943d aae4 36be 5c89 d4bc
000000c0: d5ab 57be 52ba 393e 7ef7 1a3e 028f 19be
000000d0: 6aa8 0d3e 4429 90bd ca11 083e cc61 ae3d
000000e0: 86c4 69bc 582d 6ebd c106 38be 8426 e83d
000000f0: 605c 313e 32ce 3ebe 84fd c43d 2a1a 1b3e
00000100: e830 693e b9e5 013e a0b0 d7bc 66af 29be
00000110: e95f 37bd e85f 183e 255d 453e 30c9 293e
00000120: 9fe3 313d f0aa f1bc 4457 5a3e 74af 023e
00000130: 180c 6cbe 503d 14be 78a9 01bd cab5 f4bd
00000140: 9d49 41be 097d 67be f031 103d 00b7 03be
00000150: ee1f cbbc 82b6 14be 0853 b13d 002b 443c
00000160: 7651 fdbd d6bd 25bd 33ee f23d 904d 10be
00000170: 0ecc 263e 0084 cabd e4ed b03d 8b96 12be
00000180: 9c18 5bbd beba 60bb 8054 06bd 6066 30bc
00000190: 78c6 593e 481f 723e 5dfb 12be ac4e 59be
000001a0: 6d53 113e 486a 273e 7df1 06be 888d ec3d
000001b0: 202e 78bc 606a 8a3d 2c34 bbbd 6861 433e

linear_bias f4 [7]
0.11192001 0.008450035 0.03480201 -0.05192576 0.25413316 0.11308033 -0.14526571
00000000: 5136 e53d 0472 0a3c 8d8c 0e3d 1bb0 54bd
00000010: be1d 823e a996 e73d 89c0 14be
