tests/test_data/model-checkpoints-test/configuration&id__model&RNN__epochs&10__loss_function&MSE__optimizer&Adagrad__batch_size&100__validation_split&0.2__test_split&0.1__time_steps&1__validation_period&5/Epoch_5_model_state_dictionary.pth (torch_old, 1851 bytes, 6 tensors)

w_graph_node_features f4 [4, 4]
000000 99 69 55 bf 8e 89 3f bf 6d fe bd bf 6d 49 64 bf
       -0.83364254 -0.74819267 -1.484327 -0.8917454
000010 2d 60 c8 3b e3 1a 08 bf 09 12 14 be da 58 ab bf
       0.0061149807 -0.53166026 -0.14460005 -1.338649
000020 a2 5b 24 3f 15 9a a6 3b 8b 63 e9 be 50 bc 64 bf
       0.6420232 0.005084286 -0.45583758 -0.8934984
000030 59 60 73 bf 83 91 66 be bb a2 f8 3d 6e 06 0c 3f
       -0.9506889 -0.22516446 0.121404134 0.5469731

w_graph_neighbor_messages f4 [4, 4]
000000 44 63 8b 3e 37 ae 56 bf f6 e4 2e 3f 28 29 52 be
       0.2722417 -0.8385958 0.68318117 -0.20523512
000010 5f 29 01 3e 44 9f 8e bf 28 ec 82 be d9 38 fa 3e
       0.12613438 -1.1142354 -0.25570798 0.48871496
000020 b5 ef 49 bf 59 2a 8e be e1 86 2f bf db 87 06 3d
       -0.7888139 -0.27766684 -0.68565184 0.032844406
000030 d0 f8 24 3e 19 7a 9e be 8e 2f 3b 3f a0 f8 de 3e
       0.1611054 -0.30952528 0.7311944 0.4354906

u_graph_node_features f4 [4, 4]
000000 78 d5 38 bf 98 8c 7a 3e 98 80 39 bf 46 0a 02 3e
       -0.7220073 0.24467695 -0.72461843 0.12699232
000010 39 1b 4e 3f fb cb 0f 3d 39 de 33 bf bd b1 05 bf
       0.8051029 0.03510664 -0.7026096 -0.5222433
000020 ae aa d7 3b 70 6a cb be 64 19 a5 bd 51 60 20 be
       0.006581626 -0.39729643 -0.080614835 -0.15661742
000030 84 b1 25 3f ec 9d de 3f 54 79 f2 3e 99 65 65 bf
       0.6472399 1.7391944 0.4735819 -0.8960815

u_graph_neighbor_messages f4 [4, 4]
000000 03 b3 48 bf 00 40 74 3f c9 5a 1c bf d7 c8 e2 bd
       -0.7839815 0.95410156 -0.6107603 -0.110734634
000010 6a f8 a5 bf dc 29 2b 3e b9 f3 2f bc 60 74 0f 3f
       -1.2966435 0.16715187 -0.01073926 0.5603695
000020 15 12 2b bf 5b 93 25 3e 20 ea 69 3f 46 18 f7 be
       -0.66824466 0.16169493 0.9137287 -0.48260707
000030 6b e9 3a 3f 01 92 03 bf 9b 51 58 3f 7b c0 48 bf
       0.7301242 -0.5139466 0.8449952 -0.784187

linear_weight f4 [8, 16]
000000 46 1a 90 bd aa 9b 14 3e da 98 5e 3e e3 5a 6b 3d
       -0.07036261 0.14512506 0.21737996 0.057459723
000010 a7 98 69 bd e0 9d 33 3e ff 5a 5b 3e 11 ab f6 bd
       -0.057030346 0.17540693 0.21421431 -0.12044347
000020 68 ef 29 3e a4 1e 37 3e 8b 52 16 be 5a 84 1e 3e
       0.16595232 0.17882782 -0.14679925 0.15480176
000030 99 9c 95 bd 34 cd a7 3c 67 27 8b bd 67 d6 52 3e
       -0.07305259 0.02048359 -0.06794625 0.205896
000040 37 53 83 bd fe b1 08 be f0 5c 04 bd b3 66 cb bc
       -0.06412356 -0.13349149 -0.032315195 -0.024829244
000050 20 4e 77 be 60 4d fd bc c8 7b a7 bd 5a d7 58 3e
       -0.24150896 -0.030920684 -0.08177906 0.211759
000060 d4 69 a3 bd bc b3 f7 bd c8 d1 17 3e 18 39 f7 bd
       -0.079791695 -0.120948285 0.14826119 -0.12071437
000070 2e 84 bf bd ee b3 9c 3d 3a 0b f0 bd 77 7e a9 3c
       -0.09351383 0.07651506 -0.11720891 0.020690186
000080 70 6d fe 3d 82 f9 55 3e e0 32 28 3c 09 60 53 bd
       0.12423217 0.20895961 0.010266036 -0.051605258
000090 da 7b 5b be 6c fa 31 be 27 11 b3 bd f8 42 60 3e
       -0.21433964 -0.17380685 -0.08743506 0.21900547
0000a0 d0 45 2a 3d 22 19 06 3e 2a a4 41 3e 0a a2 6d be
       0.041570485 0.13095525 0.1891028 -0.23206344
0000b0 e3 d0 db bd 86 22 20 bc 67 e9 1a bd b3 dc 0d bc
       -0.10733201 -0.009773856 -0.037820246 -0.008658576
0000c0 af ac 19 3e d0 97 b7 3c d0 69 2c bd 0b ed 64 3e
       0.1500728 0.022411257 -0.0420931 0.2235605
0000d0 4f 9a b5 3d d6 9b 1f 3e 26 f6 a0 bd b9 71 13 be
       0.08867323 0.1558679 -0.07859449 -0.1439885
0000e0 7e 7a 3c 3e d0 43 79 3e 79 53 3f 3e a8 52 40 3e
       0.18406102 0.24342275 0.18684186 0.18781531
0000f0 48 ac 0d 3e d5 de 2d bd 19 f3 8e 3d 87 9e 59 be
       0.13835251 -0.042448837 0.06979961 -0.2125188
000100 cb e0 6e be 3c e9 0a be f4 b9 e8 bd d1 f2 45 3e
       -0.23327939 -0.13565534 -0.11363593 0.19330908
000110 47 9c 1d 3e 18 3f 97 bd 07 a4 1b 3e f6 14 87 bc
       0.15391646 -0.07385081 0.1519929 -0.016489487
000120 ae 30 14 3e 32 ac 29 be c6 bb 36 be f0 3a fb 3c
       0.14471695 -0.16569594 -0.17845067 0.030667752
000130 54 dd 3c 3e b8 18 38 be a1 d9 71 be a8 08 ed bd
       0.18443805 -0.1797818 -0.23618175 -0.11573917
000140 d0 94 26 3e 7e 53 45 3e a4 7e b6 3d bd 34 95 bc
       0.16267705 0.19270131 0.089108735 -0.018213624
000150 ca 08 10 3e 1c bc 7b 3e 03 65 cb 3c 53 27 38 3e
       0.14065853 0.24583477 0.02482844 0.17983751
000160 30 fa 91 bc b8 2e 1f 3e 6f 68 63 be 00 f4 36 ba
       -0.017819494 0.15545166 -0.22207807 -0.0006979108
000170 b2 a6 57 bb 1f 77 e3 3b 59 e1 8b bd e6 7b 0a bd
       -0.0032905755 0.0069416906 -0.06830091 -0.033809565
000180 00 9b 69 3d 08 9c 7e 3d d8 b2 8c 3d bc 9f 07 3e
       0.057032585 0.06216052 0.06870049 0.13244528
000190 2e a5 c9 bd 12 72 68 be eb 4b 25 3e 10 03 43 3e
       -0.09845959 -0.22699764 0.16142242 0.19044137
0001a0 00 a4 27 bd f2 e5 65 3e 99 76 2b 3e 80 97 8f bc
       -0.040927887 0.22450998 0.1674446 -0.017528296
0001b0 7f 17 59 3e e9 3a 50 3e 59 a0 c1 3d 7c 2e 51 3e
       0.2120037 0.20334972 0.09454412 0.20427889
0001c0 4d be 12 3e b0 0e cc bc 00 2d 6f 3b b0 75 e5 3c
       0.14330406 -0.024909347 0.0036495328 0.02801022
0001d0 ce da d7 bc 00 40 93 3c 95 0b 39 3e 45 22 22 be
       -0.026349451 0.017974854 0.18070824 -0.15833385
0001e0 d0 1e 49 3d 7e c7 10 3e 92 1b 2a be f0 5d b5 bd
       0.04910165 0.141386 -0.1661208 -0.08855808
0001f0 ef 21 66 bb 33 68 8c bd b8 9a 7e be 79 43 23 be
       -0.003511544 -0.06855812 -0.24863708 -0.15943708

linear_bias f4 [8]
000000 dc ac 92 3d 44 c1 14 be 1c 75 a6 bc 64 71 20 3c
       0.071618766 -0.1452685 -0.020319514 0.009792659
000010 f3 a2 55 3d 08 58 06 bd ac 97 88 3d 53 2f 61 3e
       0.052157354 -0.032798797 0.06669554 0.21990709
